application/prediction/models_files/saint_model.pth (torch, 26614 bytes, 14 tensors)

fc1.weight f4 [64, 7]
000000 18 f2 ff 3b 52 48 40 3e c7 98 2c 3c 98 0b 82 3e
       0.0078108422 0.18777588 0.010534472 0.2539947
000010 11 01 ba 3d 04 ba 35 3d 42 d9 21 3f 8f 92 29 3e
       0.09082235 0.04436685 0.63222134 0.16559814
000020 05 a6 e9 bd 2a ff 91 3c e7 81 97 3d 9a 02 8d be
       -0.11408619 0.017821867 0.07397824 -0.27541047
000030 fa c1 28 3f 37 bb 92 be 5c 66 90 3a 6e 23 9f 3e
       0.65920985 -0.2865846 0.0011016834 0.31081718
000040 a8 54 51 bc 09 99 be 3e 8d 52 84 be cc 1c 5c bd
       -0.012776531 0.37226132 -0.2584423 -0.0537384
000050 b9 cf e5 3e 6f ad 93 bd ba 0e a5 be 1c 92 91 3c
       0.44885042 -0.07210814 -0.32237798 0.017769866
000060 9a 72 f7 3d 46 40 08 3e 2b 76 ee be 79 16 ae be
       0.120824054 0.13305768 -0.4657453 -0.3400152
000070 6a 29 c4 3d 3c d6 e8 3d ff 06 76 be e5 1d 89 3d
       0.095782116 0.11368987 -0.24026106 0.06695155
000080 a3 47 38 3e a4 fd d0 3e 87 89 1e 3e 6f 60 c2 3d
       0.17996077 0.40818512 0.1548215 0.094910495
000090 c4 a6 9f be 03 41 50 be 0d dd 8b 3e 92 29 35 3e
       -0.3118192 -0.203373 0.27317086 0.17691639
0000a0 a3 76 1d be a1 b8 54 3f 5c 76 27 3d d1 9d 04 3f
       -0.15377288 0.8309422 0.04088436 0.5180331
0000b0 06 ba fe bb 6c 92 48 3f 7b dd 60 be 5c a4 a1 bd
       -0.0077736406 0.7834842 -0.21959488 -0.07892677
0000c0 48 7d 29 3f cb 9f 00 bb 00 9c 3a bf 7c 51 e6 bd
       0.6620679 -0.0019626494 -0.7289429 -0.11246011
0000d0 76 7f 87 3e bf 8d 3c 3d 5a 0b 90 3e 1b ab 25 bf
       0.26464432 0.046033617 0.2813366 -0.6471421
0000e0 79 6e 1d be 8f 33 aa bd 29 77 12 3d 9f 63 bf 3e
       -0.15374173 -0.08310615 0.03575817 0.37380692
0000f0 9c 75 d5 3e 5c fa 19 bf fd ff 6a 3d e5 51 10 3c
       0.4169129 -0.60147643 0.057373036 0.008808588
000100 75 22 05 3f 37 2f 92 3c f4 03 05 3f f2 57 1e 3d
       0.520057 0.01784478 0.51959157 0.03865809
000110 1a e8 1f 3e 03 3c d9 bd cd 04 5d 3d cd 66 62 bf
       0.15615883 -0.106071495 0.053959657 -0.8843811
000120 1c a2 0c 3d 0d b4 0d 3f 4c 9a 89 3e 21 4b c4 3d
       0.034334287 0.5535286 0.26875532 0.09584642
000130 87 f1 75 3e aa d1 f7 bb 0a e2 41 bf 26 22 fc 3d
       0.24017917 -0.0075628357 -0.75735533 0.12311201
000140 5f bc 35 bf f2 2d 5e be ed 39 95 3e 87 e7 9a be
       -0.70990556 -0.21697214 0.29145756 -0.30254766
000150 51 d4 f8 3b ba b6 fa bb ee b9 06 3c 1e e0 16 bf
       0.0075936695 -0.0076511772 0.00822304 -0.58935726
000160 66 d0 5a 3e 1f 2b d5 3d 5a 3d 27 3f 0d 44 b9 3d
       0.2136856 0.10408615 0.6532799 0.09046183
000170 ff 6b 4e 3d 0e 97 2f 3e 5b 34 43 3f 0b 3e 7e 3e
       0.05039596 0.17147467 0.76251763 0.24828355
000180 65 e0 b6 3e 88 14 3f 3e 4f e9 ba 3c a8 98 91 3d
       0.35718074 0.18660176 0.022816328 0.07109195
000190 2f a2 e6 be 8c a5 e0 bc 1e ff c5 3d 1e 74 81 3d
       -0.4504561 -0.027422689 0.096678 0.06320976
0001a0 0c 08 9b 3e 93 f7 88 3c c7 54 02 bf df da d1 be
       0.30279577 0.016719615 -0.5091061 -0.40987298
0001b0 4a 46 02 3e 63 c7 01 3d f6 d6 ef 3d 3a b7 19 3e
       0.12722126 0.03168429 0.117109224 0.15011302
0001c0 ef 30 91 be 7f 7e cf bd 90 fb 80 be 5e c2 d3 3e
       -0.28357646 -0.10131549 -0.25191927 0.41359228
0001d0 18 e5 47 be 31 57 78 be ac 56 4e bd 91 fd 91 be
       -0.19520986 -0.24252011 -0.050375625 -0.28513768
0001e0 a8 bb 52 3c f5 3d d8 3d 65 21 27 be e4 e7 f1 bb
       0.012862124 0.10558692 -0.16321333 -0.00738238
0001f0 94 72 ac be 24 86 14 bf c4 6d 3f ba b4 28 f4 be
       -0.33681166 -0.5801718 -0.0007302428 -0.47687304
000200 dc 70 94 bd 41 04 b9 3d c8 76 fd bb ea dd bb 3d
       -0.07248089 0.090340145 -0.007735107 0.09173186
000210 b8 70 18 bf 7e 00 bd bb cc 49 07 bf 9a 0a c2 bd
       -0.59546995 -0.005767881 -0.5284698 -0.09474678
000220 c3 ed 8c bd f3 93 4e be 2d d6 56 be ec eb e1 3e
       -0.06881287 -0.20173626 -0.20980139 0.44125307
000230 04 56 3a 3d 12 45 a7 3d 7a d5 98 bc 59 cb 31 bf
       0.045492187 0.08167471 -0.018656481 -0.6945091
000240 92 54 36 bd 17 e4 83 3e da 33 36 bf 3b 2a e5 bc
       -0.044514246 0.25759956 -0.7117287 -0.027974239
000250 01 d1 ee 3d f9 b0 80 be a9 37 a8 3d eb 9a f0 3e
       0.11660958 -0.2513502 0.08213741 0.46993193
000260 c2 d9 07 bf 74 11 2a 3e 90 6d 99 bc 5e d7 22 3f
       -0.5306665 0.1660822 -0.018729001 0.63609874
000270 15 d3 34 3d f3 3e 2c 3e 32 5b a9 be b1 10 a7 3d
       0.044146616 0.16820888 -0.3307739 0.081574805
000280 a1 3f 17 3e 0e b4 9c be 38 0e a5 3e 72 43 55 bd
       0.14770366 -0.3060612 0.3223741 -0.052066274
000290 dd fb a9 3c e9 84 ac 3e 25 fe 75 bc 8a 02 b1 3c
       0.02074998 0.33695152 -0.015014206 0.021607656
0002a0 94 6b 19 bb 69 a6 40 3b 09 08 4b bd 79 3e d3 be
       -0.0023410069 0.0029396063 -0.04956821 -0.412586
0002b0 43 3a ed 3c ae bd 42 be 4c 67 fe be 64 33 d1 bc
       0.028958445 -0.1901767 -0.49688184 -0.0255372
0002c0 5c 29 b0 be fb a1 0d bd 5a e7 13 3f 45 fc 15 be
       -0.34406555 -0.034578305 0.5777489 -0.14647014
0002d0 7e c0 e3 be df 20 9d be d7 7e a3 3a 25 70 35 3e
       -0.44482797 -0.3068914 0.0012473714 0.17718561
0002e0 b6 cc 07 3c 80 57 76 3e 9d 56 c3 bc 6c 42 96 3d
       0.008288553 0.24056816 -0.023845011 0.07336888
0002f0 d7 a7 cc 3e 28 6d 66 3d b9 10 2a be be da bf bd
       0.39971802 0.056256443 -0.16607942 -0.09367894
000300 b1 5d 1a 3e 80 04 da 3c e2 59 6d be 65 5e 59 3d
       0.15074803 0.026613474 -0.23178819 0.053068537
000310 9c 75 5d 3b 31 43 c0 3e de 89 77 3c bc 7e 5e 3e
       0.0033792024 0.37551263 0.015108554 0.21728033
000320 44 21 22 be bf 3d 13 3c a1 55 28 3f 02 4a 8c bb
       -0.15833002 0.008986889 0.6575566 -0.0042812834
000330 f7 a9 27 bf 01 96 f0 bc ba a6 68 be c2 3e 17 bc
       -0.6549372 -0.029368402 -0.22719851 -0.009231271
000340 54 41 cb bb 87 70 20 bf c2 9e 24 3e 80 2d 55 be
       -0.006202856 -0.62671703 0.16076186 -0.20818138
000350 4e 73 27 3e 77 a7 b0 3e 07 7a 1d be 24 43 38 3f
       0.16352579 0.34502766 -0.15378581 0.7197745
000360 7f 61 ee 3e 42 ac d6 bc 3b 79 08 3f dc 4f 6c be
       0.4655876 -0.026205186 0.53309983 -0.23077339
000370 e1 08 f5 3e 69 bf cb 3e 6f 78 01 bf 50 b8 d1 be
       0.47858337 0.39794472 -0.5057439 -0.40960932
000380 03 28 9f 3e d6 f9 cd 3d d5 7f c6 3d d4 21 d4 3e
       0.31085214 0.10057418 0.09692351 0.4143206
000390 e8 87 de be 03 c4 1c be 7d ce 59 3d a3 b1 74 be
       -0.43463063 -0.15309148 0.05317544 -0.23895888
0003a0 03 f3 1a bf 13 5f 0e be 63 87 67 3e 04 d5 4f 3e
       -0.60527056 -0.13903455 0.2261024 0.20296103
0003b0 99 80 f9 be c6 81 be 3c d9 34 59 3c 2f f0 d7 3e
       -0.48730925 0.02325524 0.013257229 0.42175433
0003c0 85 64 b8 be 8b 38 2c 3e c7 17 73 3e 54 8b af 3d
       -0.3601419 0.16818444 0.23739539 0.085714966
0003d0 40 9d 8a be 65 1e 96 3c 73 13 aa be da 07 99 3e
       -0.27073097 0.01832504 -0.33217964 0.29888803
0003e0 89 5d 5e 3e e3 37 d4 be 76 41 58 3e 0c 0f 2b bd
       0.21715368 -0.41448888 0.21118721 -0.041762397
0003f0 27 30 b5 3b fc eb 91 3e 9c 8f 92 3c e6 4d 8e 3e
       0.005529422 0.28500354 0.017890744 0.27793807

fc1.bias f4 [64]
000000 ff 45 82 3e 16 05 63 3e 5f cc 8a 3d 66 82 c0 3e
       0.25444028 0.22169909 0.06777262 0.37599486
000010 39 d5 b6 3e e0 85 6c be d0 bb a9 3e 5b e1 a9 be
       0.3570955 -0.23097944 0.33151102 -0.33179745
000020 fc 7c 07 be f1 49 85 3d f3 34 1a be 8e 9f 4a be
       -0.13231272 0.06508244 -0.15059261 -0.19787428
000030 21 5b be 3c 81 06 b2 be a5 ff 5d 3e 96 63 cd bd
       0.023236813 -0.34770587 0.21679552 -0.1002876
000040 23 7a 59 bc 53 f8 58 be 71 33 54 3d 7d e5 99 3c
       -0.013273749 -0.21188478 0.05180687 0.018786186
000050 f3 bd ab 3e 96 72 8a 3e da da b4 bd a0 d1 38 be
       0.33543357 0.27040547 -0.08830805 -0.18048716
000060 64 50 15 3e 17 29 b0 be b0 b8 b5 3e e0 6e bd 3d
       0.14581448 -0.3440635 0.35492468 0.09249663
000070 90 4d 2f 3e c6 72 0c be 05 07 f9 3d 3d 8b 8c bd
       0.17119431 -0.13715658 0.12159542 -0.06862495
000080 ce e1 0f 3e 77 37 78 3e 4b b4 63 bd 2a fd 98 be
       0.14050981 0.24239908 -0.055591863 -0.2988065
000090 dc e5 52 3e 38 26 a0 be 83 1e bb 3c 67 59 b1 3e
       0.20595497 -0.3127916 0.022841698 0.3463852
0000a0 8e cf 89 be ca 98 a1 3e f0 4d 0d 3e dd 69 5c 3e
       -0.26916164 0.3156188 0.13799262 0.21524759
0000b0 c9 08 77 3e 87 47 89 be 6c 92 66 be 56 54 e2 bc
       0.24124445 -0.26812384 -0.22516793 -0.027628105
0000c0 f6 a7 94 be 7a 0f f5 3d 25 2c 16 be ff b5 07 bd
       -0.29034394 0.119658425 -0.14665277 -0.03313255
0000d0 27 9f 06 3d 12 4e 75 3e 75 a8 9d be d3 53 fd 3d
       0.032866623 0.23955563 -0.30792585 0.12369504
0000e0 a5 9c 28 be 13 96 7a 3d fb 10 ab be 85 52 a6 be
       -0.16466005 0.06117828 -0.33411393 -0.32484832
0000f0 c9 ea 13 3d 2b f2 4d 3e d6 b7 13 3d 00 1a ac be
       0.03611258 0.20111911 0.03606399 -0.33613586

bn1.weight f4 [64]
000000 f7 d1 8e 3f fa 03 a5 3f 14 1e 95 3f 82 cd 85 3f
       1.1157826 1.2891839 1.1649804 1.0453341
000010 44 37 8b 3f bf 4a 7d 3f 16 d5 4c 3f f1 a4 9b 3f
       1.0876241 0.9894218 0.80012643 1.2159711
000020 02 fb 6e 3f e1 6a b3 3f ff 7b 84 3f 04 bb 82 3f
       0.9335176 1.4016992 1.0350341 1.0213323
000030 6b 0e 97 3f 46 4b 76 3f 45 2e 9f 3f 32 e3 ac 3f
       1.1801275 0.9620861 1.2435995 1.3506835
000040 ca 02 65 3f 8b 0c 5c 3f c5 c4 b7 3f d6 50 88 3f
       0.8945738 0.8595664 1.4356924 1.0649669
000050 0e 3e 91 3f 7e dd 8d 3f 18 1c b3 3f b9 c8 4f 3f
       1.1347063 1.1083219 1.3992949 0.81165653
000060 d5 80 8f 3f 40 4e 7d 3f 18 fc 90 3f f0 05 55 3f
       1.1211191 0.98947525 1.1326933 0.83212185
000070 f8 63 80 3f d1 96 8b 3f 7a 1e 8b 3f 79 2b 8e 3f
       1.0030508 1.09054 1.0868676 1.1107017
000080 8e eb 56 3f 52 1d 56 3f 1b da 81 3f cc 8f 57 3f
       0.8395318 0.8363849 1.0144686 0.8420379
000090 54 9a 92 3f bd 7a 59 3f d0 12 5d 3f 52 11 ba 3f
       1.1453347 0.8495291 0.8635683 1.4536536
0000a0 5c 63 95 3f a9 1c 88 3f 87 61 64 3f 74 5f 7c 3f
       1.1670947 1.0633746 0.89211315 0.9858315
0000b0 cf f8 af 3f a7 78 8b 3f e2 d6 8d 3f 31 90 7c 3f
       1.3747805 1.0896195 1.1081202 0.9865752
0000c0 4b cb 6e 3f f8 1d 75 3f 2f 4f 4b 3f 87 a1 9c 3f
       0.9327895 0.95748854 0.794177 1.2236794
0000d0 4a f6 a5 3f 19 49 40 3f 73 c2 8a 3f 73 4c 98 3f
       1.2965786 0.7511154 1.0840591 1.189833
0000e0 05 08 60 3f 96 43 5e 3f f0 5c 90 3f 5c bf ba 3f
       0.87512237 0.8682188 1.1278362 1.4589648
0000f0 54 0b 8b 3f 8d f0 57 3f 94 39 6d 3f 1c 1e dc 3f
       1.0862832 0.84351426 0.9266598 1.7196689

bn1.bias f4 [64]
000000 0a de 0e bf be 4e c4 be 7d 46 48 bf ec 3b ee be
       -0.55807555 -0.38341326 -0.78232557 -0.46530092
000010 dc a5 0b bf a4 ae fc be 1d 3b 7a be 33 60 8b be
       -0.54549956 -0.4935199 -0.24436612 -0.27221832
000020 da bf db be 41 dd 77 bf 9b da f5 be 80 b2 03 bf
       -0.4291981 -0.9682198 -0.48018345 -0.51444244
000030 48 15 21 bf 31 dd 97 be 80 c5 79 be 77 fd 39 be
       -0.629231 -0.29660943 -0.24391747 -0.18163095
000040 34 0e d2 be 0f 99 86 be a5 16 f8 be 70 9a e2 be
       -0.4102646 -0.2628865 -0.48454776 -0.4425845
000050 6e 01 17 bf 78 6d e4 be 4d 0b 37 bf a2 24 9d be
       -0.58986557 -0.44614768 -0.7150162 -0.3069201
000060 5b ce 18 be c5 4a 2f bf 7c c0 55 be 08 b4 b2 be
       -0.14922468 -0.68473464 -0.20874208 -0.34902978
000070 52 88 32 bf af d0 45 be f8 1f b5 be 3d 4d dc be
       -0.6973926 -0.19317888 -0.35375953 -0.43027678
000080 8f c1 26 be ff 1e b8 be 23 4d df be 54 d8 86 be
       -0.16284774 -0.35961148 -0.43613538 -0.2633692
000090 15 64 7a be d3 f6 76 be a0 bf 88 be 0b 8c 1b bf
       -0.24452241 -0.24117593 -0.26708698 -0.60760564
0000a0 8b d6 7e be 59 06 02 bf 82 6e 94 be 62 1e 17 bf
       -0.24886529 -0.50790936 -0.2899056 -0.59030735
0000b0 b8 21 d5 be f8 f3 0b bf e5 5a 2d bf 89 2a 9b be
       -0.41627288 -0.5466914 -0.6771682 -0.3030589
0000c0 c1 93 3b bf 10 35 03 bf bd 1d 86 be 27 b8 c4 be
       -0.7327233 -0.5125284 -0.26194564 -0.38421747
0000d0 36 91 f5 be 35 6a a4 be 27 41 1d be 4e f9 39 bf
       -0.4796235 -0.3211228 -0.15356885 -0.72646034
0000e0 03 4f ea be a4 96 d6 be 3b 5d 15 bf 7f 5c c3 be
       -0.45763406 -0.41911805 -0.58345383 -0.38156506
0000f0 0c 0b 51 be 74 0a 90 be cf 0b 6a be eb 2e 45 bf
       -0.2041437 -0.28132975 -0.22856067 -0.77024716

bn1.running_mean f4 [64]
000000 2a fe dc 3f 2d 35 11 41 c9 d4 96 bf 5a 4b 54 c0
       1.7265065 9.075482 -1.1783687 -3.317099
000010 0c de dd 3e 4d 21 78 bf 1c 3c b6 3f 6f e9 44 c0
       0.4333347 -0.9692581 1.4237094 -3.0767477
000020 14 5d cb c0 9a b8 fa 3f b1 48 99 40 5b 11 fc 3f
       -6.355112 1.9587586 4.7901235 1.9692796
000030 92 e5 ed 3f 68 03 34 41 17 e7 26 c1 ab c6 26 c1
       1.8585684 11.250832 -10.431418 -10.423503
000040 99 4e b5 c1 9f d3 4e c1 28 a5 fa bf d7 45 92 c0
       -22.663378 -12.926665 -1.9581652 -4.5710254
000050 37 c3 13 40 10 ab de c0 9d 5d 6c bf d9 8c 73 c1
       2.30879 -6.9583817 -0.9233034 -15.221887
000060 87 4f d3 bf ef fd 89 c0 9e d9 6b 3f ba 13 93 be
       -1.6508645 -4.3122478 0.9212893 -0.28725988
000070 55 d7 81 3e f7 a2 e3 bf ba 0a 5e 41 f8 ba d5 c0
       0.25359598 -1.7784108 13.877619 -6.6790733
000080 bd 66 80 41 8d 35 80 c1 52 69 f8 c0 06 ef e2 40
       16.050165 -16.026148 -7.7628565 7.0916777
000090 ce 24 ae 3f 26 43 31 bc 50 cf 0f 41 8a 59 03 40
       1.3604982 -0.010819232 8.988113 2.05234
0000a0 8c 1c cf 3e 57 a0 02 be 82 f9 66 41 81 7e 70 40
       0.40451467 -0.12756477 14.435915 3.7577212
0000b0 03 38 14 c0 a9 77 38 c0 44 de 88 3f 90 06 44 c0
       -2.3159187 -2.8823035 1.069283 -3.0629005
0000c0 17 6d ce 3f 0b fc 88 40 44 1a 12 41 85 67 71 3f
       1.6127042 4.280767 9.1314125 0.94298583
0000d0 f6 eb b1 3e cc d6 be c1 83 a8 fc be a9 8e fe 3f
       0.34750336 -23.854881 -0.49347314 1.9887286
0000e0 6b 1b 86 c1 e9 15 84 40 f4 cf 5a 3d 30 55 18 40
       -16.763388 4.1276746 0.053420976 2.3801994
0000f0 80 5a 21 c1 5b fb 89 c0 b8 24 2f 40 af 0b df 40
       -10.084595 -4.311933 2.7366161 6.970176

bn1.running_var f4 [64]
000000 1b a0 31 3e 48 a6 1c 41 df 90 25 3f dd 05 08 40
       0.17346232 9.790596 0.6467418 2.1253579
000010 df ae ca 40 27 f6 a4 40 8d ef 99 3f 5b 10 80 3f
       6.3338466 5.155048 1.202623 1.0004991
000020 3c c0 19 41 16 8f 66 3e 7e fa e9 3f 86 8c cf 3f
       9.609432 0.2251552 1.8279569 1.6214759
000030 90 a9 0f 3f 7d 73 a3 40 f1 08 2c 41 c6 23 10 41
       0.56118107 5.1078477 10.752183 9.008734
000040 81 46 e7 41 9d 1c d7 41 3b 76 bd 3e f7 64 83 3f
       28.909426 26.888971 0.37004265 1.0265187
000050 f4 f0 80 3f 3e a7 ba 40 e6 3d 9d 3f a1 c3 ef 41
       1.0073533 5.8329153 1.2284515 29.970522
000060 71 cf 88 3e e1 49 7a 3f 8b ab 78 3d 7b 11 bc 3f
       0.26720765 0.9776898 0.06071047 1.4692835
000070 ad 58 a1 3e 13 56 66 3e fb a0 32 41 29 07 a0 40
       0.31512967 0.22493772 11.164302 5.000874
000080 c4 51 fd 41 ea fb 9c 41 79 e1 ea 40 c6 b0 c6 40
       31.664925 19.623005 7.3400235 6.209079
000090 e0 ba 0e 3e a9 b2 64 3f f5 e3 8b 40 f0 51 e7 3f
       0.13938475 0.89335114 4.371577 1.807188
0000a0 77 e4 06 3e 48 0b ef 3d 69 73 0b 41 67 04 8b 3f
       0.1317309 0.116720736 8.715676 1.0860718
0000b0 ef f8 09 3f d0 0d 70 3f ca 01 dd 3e 8b 69 1e 40
       0.5389547 0.93771076 0.43165427 2.4751918
0000c0 4c 1f 89 3f 3a 43 01 40 9a 2b aa 40 73 99 26 3e
       1.0712676 2.0197282 5.3178225 0.16269474
0000d0 bf 40 fd 3d 83 be 4f 42 b5 01 bd 3d 0f 3a bd 3e
       0.12365865 51.936047 0.09228841 0.36958358
0000e0 2e 4e 8e 41 cc 46 38 40 9f 30 3d 3f ad 54 11 3f
       17.788174 2.879321 0.73902315 0.5676983
0000f0 9f 6f 06 41 e4 1a bb 40 c2 22 44 41 b9 2d 76 40
       8.402251 5.8470325 12.258486 3.8465407

fc2.weight f4 [64, 64]
000000 ee 0e b1 bc 84 7d bf b9 80 ba d0 3d 9a 1c b2 3d
       -0.021613564 -0.00036523875 0.10191822 0.086968616
000010 90 bc 4c bd c5 86 85 bc c1 2d 20 3e cd d1 23 bd
       -0.049984515 -0.016299615 0.15642454 -0.039995003
000020 ba 99 5e bc cf ec 08 3e d3 38 7e bc eb a6 93 3c
       -0.013586456 0.13371585 -0.015516478 0.018023929
000030 63 5a a6 3c c2 04 49 bc c0 ec 10 be 14 12 83 be
       0.020306772 -0.012269201 -0.14152813 -0.2559973
000040 40 b6 cc ba c1 d9 b5 3c 0f 8e 28 be 53 f3 8d 3d
       -0.001561828 0.02219856 -0.16460441 0.06931176
000050 d2 24 36 bd 2f c6 af bd aa 8f 09 bd b7 1c b5 3c
       -0.04446871 -0.085827224 -0.033584274 0.022108419
000060 28 8c cd bd 4c ca 19 3e 61 ee b6 bd d8 cd 0d bd
       -0.10036498 0.15018576 -0.08932186 -0.034620136
000070 d7 f3 a4 bb e9 c8 7f bd 17 c9 d2 3c 56 24 18 be
       -0.005033951 -0.062447462 0.025730653 -0.14857611
000080 4e 3f 60 3d b2 f3 85 bd 92 0a 21 bd 33 8d 5c bc
       0.054747872 -0.06540622 -0.03931672 -0.013461399
000090 26 d8 14 bd 01 c6 1f bd cc 45 3e bd 06 35 90 ba
       -0.036338948 -0.03900719 -0.046453282 -0.001100213
0000a0 fc 21 98 3d 1e ec ab 3d dd c7 42 bd 62 05 a4 bd
       0.07428357 0.08394645 -0.047553886 -0.08008839
0000b0 c1 95 9b ba 61 1c cf 3c 9f c9 7d 3d b6 4f 30 bd
       -0.0011870192 0.025282087 0.06195986 -0.04304477
0000c0 94 6e b1 bd 23 27 a3 bc e3 b4 e7 3b 54 69 fa 3d
       -0.08663669 -0.019916123 0.007071124 0.12227121
0000d0 9d 52 2b 3b 73 95 88 3d e1 e4 24 be 57 76 de 3d
       0.002614177 0.0666913 -0.16102935 0.10862415
0000e0 89 13 89 bd 37 38 c1 ba 32 c0 98 bd c2 10 07 3d
       -0.06693179 -0.0014741485 -0.07458533 0.032974966
0000f0 c4 b2 41 be 22 b2 23 be a7 9d 2d bc 02 a5 5a bb
       -0.1891585 -0.15985921 -0.010596669 -0.0033362512
000100 d1 39 34 3e a9 b5 44 ba 71 9a b3 bc 43 56 2f 3c
       0.1760018 -0.0007503876 -0.02192423 0.010701719
000110 24 14 69 bd d0 28 08 be 14 d7 86 bc 3c ab 32 bb
       -0.056903973 -0.13296819 -0.01645998 -0.0027262708
000120 75 95 be ba 20 e7 c1 be f5 e7 82 bd 21 46 6e bb
       -0.0014540391 -0.37871647 -0.063918985 -0.0036357718
000130 95 99 56 3d 8f 89 56 bb 91 04 9a bc a1 34 a9 3c
       0.05239256 -0.00327358 -0.018801006 0.020654978
000140 c6 a8 8b bc a5 b9 bb 3c 47 c2 5d bb 68 f4 8b bd
       -0.01704825 0.02291567 -0.0033837722 -0.06833726
000150 32 46 b2 bc 81 c4 10 bd 2d 4f c2 bc 1f cc f9 3c
       -0.021761987 -0.03534365 -0.023719395 0.03049284
000160 d4 b6 48 3d 16 69 2c bd 3e 23 8e bc 40 78 73 bd
       0.049002483 -0.042092405 -0.01735079 -0.05944085
000170 d8 cd 57 3e 8d 74 01 be bd f1 0d bb 21 d6 1d bd
       0.21074617 -0.12642117 -0.002165898 -0.038534287
000180 f8 5d 48 bd 03 13 50 bd 9a 25 bf bd 9d 2e 04 bc
       -0.04891774 -0.05079938 -0.09333344 -0.008067754
000190 a9 84 14 3d 35 87 fb bc c3 66 12 3d da 87 26 bd
       0.036259327 -0.03070412 0.035742532 -0.040656902
0001a0 2a 8f 29 be b9 cb 2e 3d 50 e1 e0 3a df 16 9f bd
       -0.16558519 0.042674754 0.0017156992 -0.07768034
0001b0 ae f9 f8 bd 06 0a d8 3d 7f 71 e6 bd a6 08 0c bd
       -0.121569976 0.10548787 -0.112521164 -0.034187935
0001c0 15 a6 50 3b ea dd 5d bd 23 66 61 bd 29 54 2a 3e
       0.0031837274 -0.054166712 -0.055029046 0.16633667
0001d0 32 a0 89 bd f0 a6 bb 3b 63 a2 d4 be a2 7e e8 3c
       -0.06720008 0.0057266876 -0.4153014 0.028380696
0001e0 1f 16 e0 bc 00 01 40 3d 85 03 0a be c4 3e 8f 3d
       -0.027354298 0.046875954 -0.13477905 0.069943935
0001f0 92 b0 48 3d 76 08 c9 3c 68 cd c8 b9 7e 51 44 3c
       0.048996516 0.024540167 -0.00038300012 0.01198232
000200 04 64 aa 3d 41 55 b3 bb a1 eb 31 3d ef 97 89 3b
       0.08319858 -0.0054728095 0.043437604 0.00419902
000210 f9 de 0a 3c 1e 1d 03 3d bb f3 ca 3c 2c 02 ce 3b
       0.008476012 0.03201019 0.024774423 0.00628688
000220 dc 67 d0 3b e7 a7 16 bf 78 12 85 3c 32 7a f3 3c
       0.0063600373 -0.5884995 0.016244158 0.029721353
000230 21 2f e6 3d ca a4 cd 3c f9 92 d7 3b 88 20 9d 3c
       0.11239458 0.025102992 0.0065788 0.019180551
000240 9b 1e 62 bd 6d 49 2f bc 5b a2 54 bc 1c f7 ef bc
       -0.05520497 -0.010698658 -0.012978162 -0.029292636
000250 a6 e4 bf bc 4b 2b 0c 3c b5 02 44 3d f4 e7 73 bc
       -0.023424458 0.008555244 0.047854144 -0.014886845
000260 28 73 2b bc 76 bd de 3d 0b af e7 3d a1 22 86 3d
       -0.010464467 0.108759806 0.11312684 0.06549574
000270 5d 50 af 3d d4 0b 49 be 32 41 cb 3c 11 3d ca bc
       0.0856025 -0.19633418 0.024811361 -0.024687322
000280 04 69 57 3c cc 23 4b bd 6b f4 68 3d 73 cb 9a 3b
       0.013147596 -0.049594685 0.05687372 0.00472396
000290 a2 21 9f 3d 16 ad 22 3d 2b 6f 14 3d 87 33 8d 3c
       0.07770087 0.03971585 0.03623883 0.017236484
0002a0 8e 86 1c 3d d6 96 86 3d 09 3d 5d 3d 94 a6 4b 3d
       0.03821426 0.065717384 0.054013286 0.04971941
0002b0 4e 3f 47 be 47 e3 8f 3d b1 94 e2 3c dc 1e 22 3d
       -0.19457743 0.070257716 0.027658792 0.03958021
0002c0 86 af 0a 3d 7a a9 16 3d 6d a2 04 3c e0 5d f4 bc
       0.0338588 0.03678272 0.008095366 -0.02982992
0002d0 6a da 02 3d 7c 12 7b bb 90 db 87 ba 7c 60 7e 3d
       0.031946577 -0.0038310578 -0.0010365117 0.062103733
0002e0 08 95 cb bc 98 49 d1 3c 9d ec 3f 3c 44 53 a3 bc
       -0.024851337 0.025547788 0.011714128 -0.019937165
0002f0 35 cc ac 3c 57 97 3d 3c bf e0 1d 3b e2 0d 9c 3c
       0.021093467 0.011571727 0.0024090258 0.019049589
000300 1b cf d6 3d b5 a0 3f 3c 0e 9f bb 3d 3c 48 dc bc
       0.10488721 0.01169603 0.09161197 -0.026889913
000310 28 54 44 bd 7c 15 ae 3d 46 82 dc 3d c2 39 10 3d
       -0.04793182 0.085001916 0.10767035 0.035211332
000320 3c c3 01 3e a8 b5 29 3c f3 ef c3 3d 6f 8a 21 3d
       0.12672132 0.010358252 0.09567251 0.03943866
000330 d2 45 e8 3d b2 5e 0a 3d dd a4 5d bb 89 76 03 bb
       0.11341442 0.033781715 -0.003382019 -0.0020059666
000340 c1 3f a2 3d 05 0c 9e 3d 65 83 88 3c 59 18 9d 3d
       0.07922316 0.07717136 0.016664216 0.076706596
000350 a3 e7 59 bd c0 00 b3 3d b6 1d 36 3d 08 be 73 3d
       -0.05319942 0.087403774 0.04446193 0.0595074
000360 d7 12 bf bc 85 be 25 3d 9f d1 2e be 41 49 0a 3b
       -0.023324413 0.040464897 -0.17072152 0.0021100792
000370 23 78 0a bc a9 5d 1a 3d 81 93 9b 3d 81 f6 14 bd
       -0.008451494 0.037686978 0.075964935 -0.036367897
000380 e1 18 f4 3d 20 fb 50 3d 4d d3 88 bd 15 b1 2a bd
       0.11918808 0.05102074 -0.066809274 -0.041672785
000390 5d 04 57 bd 52 04 4b 3c c4 e3 c9 bc b2 d5 03 3d
       -0.052494396 0.012391167 -0.02464474 0.032186218
0003a0 b0 8f 50 be 74 1f 0f be 91 74 5d 3d 31 ab 80 bd
       -0.20367312 -0.13976842 0.054066245 -0.06282652
0003b0 51 e3 82 3d b0 38 ae 3d 84 44 f8 bc d7 62 f1 3c
       0.063910134 0.08506906 -0.030306108 0.029466076
0003c0 a9 69 53 3d 0b 1c c4 3d 7f 5a 86 bc a4 a0 14 be
       0.051614437 0.09575661 -0.016400574 -0.14514405
0003d0 4c 67 54 be 2b db 1b 3c 08 b2 09 3e 73 81 e1 3d
       -0.2074253 0.009512703 0.1344682 0.110110186
0003e0 e1 d6 e0 3d a4 1c 22 bc a9 1d 2e be 0a 4c 74 3d
       0.10978485 -0.009894524 -0.17003502 0.05964283
0003f0 f9 81 71 3d 39 cc 55 3d c1 81 08 3c 8b 40 0c bd
       0.058961842 0.052196715 0.008331717 -0.03424124

fc2.bias f4 [64]
000000 e3 64 49 bd 09 41 73 3d b4 50 82 3d e3 4e ca 3d
       -0.04916848 0.059388194 0.06363049 0.09878328
000010 b4 83 e8 bd cc 9d bd 3d cf ed 5c 3d f4 06 d0 b8
       -0.113532454 0.09258613 0.05393773 -9.919508e-05
000020 98 55 80 3c 20 a0 82 3d 57 bf 2c 3d 9d 02 5a 3c
       0.015665814 0.06378198 0.042174663 0.013306287
000030 6b 69 08 3d 85 8a a4 3d a4 a0 ff bc a8 8f e8 bd
       0.03330366 0.08034233 -0.03120453 -0.11355525
000040 2e f0 9e bc 77 8f a1 3b 57 4f b2 3d b1 e3 aa bd
       -0.019401636 0.0049304324 0.08706539 -0.0834421
000050 c9 10 e8 3c 2b 84 ca 3d 74 f7 c4 bd 32 df b1 3d
       0.028328316 0.0988849 -0.096175104 0.08685149
000060 c6 a5 9f bd db 64 a5 3d a6 19 c1 3d aa f6 cb 3d
       -0.07795291 0.08075877 0.0942872 0.09959157
000070 00 d2 87 bd 84 2e 7a bb 07 b6 27 3c 41 91 e0 bc
       -0.06631851 -0.0038174698 0.01023627 -0.027413012
000080 89 f0 6e 3c d2 e2 f8 bd 14 21 94 3d c2 e6 f6 bd
       0.014583715 -0.121526375 0.07232872 -0.12055732
000090 37 0d 8d 3d e6 75 53 bd 17 13 b3 bd 85 f5 97 3d
       0.06887286 -0.05162611 -0.087438755 0.07419876
0000a0 2e b3 d0 3d a9 6f 5d 3d ba 78 a8 bd 35 52 da 3d
       0.10190426 0.054061566 -0.08226152 0.10660211
0000b0 5c 57 61 3d 07 f8 a4 bd bb 09 c4 3d f1 cf fb 3d
       0.055014953 -0.0805512 0.095721684 0.12295521
0000c0 75 88 42 bd b3 99 64 3c 5c 51 a7 bd 72 39 90 3d
       -0.047493417 0.01395266 -0.08169815 0.07042207
0000d0 a8 f9 30 bd 27 1c 88 bd 6a 89 23 bc cf 52 00 3d
       -0.04320684 -0.06645995 -0.0099814925 0.031328972
0000e0 e5 05 07 bd 94 4b 87 3d cb fb ca bd f5 7d cd 3d
       -0.032964606 0.06606212 -0.09911307 0.1003379
0000f0 2f 1d 83 bd 24 83 de bd 18 83 ae 3d 5e 37 82 bd
       -0.06402051 -0.10864857 0.08521098 -0.06358217

bn2.weight f4 [64]
000000 6d d0 9b 3f 0c 61 b5 3f 6c 39 9d 3f e0 da a1 3f
       1.2172982 1.4170241 1.2283149 1.264492
000010 48 8e b8 3f 44 d8 a6 3f 4d 27 9e 3f 63 af 94 3f
       1.4418421 1.3034749 1.2355744 1.1616024
000020 64 32 93 3f e2 30 c8 3f c6 50 ae 3f f3 48 93 3f
       1.1499753 1.5639918 1.36184 1.1506637
000030 6e 23 9b 3f ee 62 82 3f 78 8c 9b 3f 22 5d a5 3f
       1.2120187 1.0186441 1.2152243 1.2919047
000040 32 3f 98 3f 1c 3b 7d 3f e3 9c 91 3f c9 53 ad 3f
       1.1894286 0.9891832 1.1376003 1.3541194
000050 8d 98 9f 3f d1 37 96 3f e9 c4 8c 3f 4d f4 9f 3f
       1.246843 1.1735784 1.0997592 1.249643
000060 de 49 92 3f 96 c7 b3 3f 33 59 c4 3f 34 d1 a3 3f
       1.1428792 1.4045284 1.5339721 1.2798219
000070 01 0b aa 3f 0d a0 b1 3f 10 56 a4 3f cb 56 af 3f
       1.3284608 1.3876969 1.2838764 1.3698362
000080 0d e0 93 3f 70 2a 84 3f 67 da 9a 3f 8f 95 9b 3f
       1.155275 1.0325451 1.2097901 1.2155017
000090 f9 ca ae 3f 0a 6c 9d 3f 6a 24 83 3f 76 c8 af 3f
       1.3655692 1.2298596 1.0245488 1.3733051
0000a0 a6 0a 9f 3f 77 22 9a 3f ea 23 a7 3f 19 f1 a2 3f
       1.2425125 1.2041768 1.3057835 1.2729827
0000b0 d7 a9 9f 3f c2 ce 99 3f f0 02 a0 3f 2e 82 a3 3f
       1.2473706 1.2016222 1.2500896 1.2774103
0000c0 b1 93 a0 3f 31 b2 97 3f 5f 08 ab 3f 67 e7 8a 3f
       1.2545072 1.1851255 1.336193 1.0851868
0000d0 5d e0 a6 3f fb 67 a2 3f 76 ea 8f 3f 59 1c a1 3f
       1.303722 1.2687982 1.1243427 1.2586776
0000e0 1f 92 a0 3f 0e 25 a9 3f 77 a1 ab 3f 56 8a ad 3f
       1.2544593 1.3214433 1.340865 1.3557842
0000f0 e9 4f 9b 3f c2 65 9c 3f 12 e4 96 3f be d8 9b 3f
       1.2133762 1.2218554 1.1788352 1.217552

bn2.bias f4 [64]
000000 ca da 94 be ea 88 07 bf e0 42 a1 be df 84 4d be
       -0.29073173 -0.5294329 -0.31496334 -0.20070218
000010 a7 b3 dc be 07 07 12 bf e6 70 96 be f5 88 de bd
       -0.43105814 -0.5704197 -0.2938301 -0.10865966
000020 27 3c b2 be 4b 0e 34 bf 38 d8 05 be bf 6b ba be
       -0.34811518 -0.7033431 -0.13070762 -0.3641033
000030 24 39 96 be a7 a9 a0 bd 1f e3 ba be 89 3f 83 be
       -0.2934047 -0.078448586 -0.36501405 -0.2563441
000040 f6 c4 10 bf ca 8a 04 bd 63 86 bd bd ee 3e f5 be
       -0.5655054 -0.032358922 -0.09254148 -0.47899574
000050 7a 25 01 be b9 76 6a be 44 36 35 be ae cb 4b bf
       -0.12611952 -0.22896852 -0.17696482 -0.79607666
000060 95 d7 5c be bc bb bc be 87 37 c8 be b0 ee b3 be
       -0.21566613 -0.3686198 -0.39104864 -0.35143042
000070 47 57 d6 be 7a ed 0b bf 9a 92 ec be fc 5b 14 bf
       -0.41863462 -0.54659235 -0.46205598 -0.57952857
000080 1d 42 5a be 19 fb 40 bd b4 e9 fc be ca b3 b5 be
       -0.21314283 -0.047114465 -0.4939705 -0.3548873
000090 dd d4 11 bf 10 cf 6b be e6 af 9c bc cc 32 cc be
       -0.5696543 -0.23028207 -0.019126844 -0.39882505
0000a0 79 cc a0 be 4c 3a a1 be d1 17 f8 be 46 4a c6 be
       -0.31406 -0.3148979 -0.4845567 -0.3872854
0000b0 02 0c 6f be 9e 75 4b be 87 81 46 bf db d9 02 bf
       -0.23344424 -0.19869086 -0.77541393 -0.5111367
0000c0 24 c6 a6 be 19 fa 72 be 9c ec c5 be 99 79 1d be
       -0.32573044 -0.23728217 -0.3865708 -0.15378417
0000d0 9f 2e 1d bf 90 a8 96 be f9 18 8e be 7c 58 eb be
       -0.61399263 -0.29425478 -0.27753428 -0.45965946
0000e0 e2 15 ab be e7 64 f2 be 81 1d 87 be d0 a6 df be
       -0.33415133 -0.47342607 -0.26389697 -0.43681955
0000f0 4b 07 e6 be bf 18 6d be 37 f2 ab be 4e e1 1d bf
       -0.4492744 -0.23153971 -0.33583233 -0.6167191

bn2.running_mean f4 [64]
000000 ae a0 be be 56 c4 3e be e7 7c a4 3d 36 49 30 3e
       -0.37231964 -0.18629584 0.08031636 0.17215428
000010 d3 6f c9 be 8b 82 aa bd 56 f6 46 bd 9b 7b 4c 3d
       -0.39343128 -0.0832568 -0.048574768 0.049922567
000020 c1 6b ae 3d ec 02 8b be 4a da a5 3d 24 64 f0 3d
       0.08516646 -0.27150667 0.08098276 0.1173785
000030 d4 d9 6e be 49 ac 54 3c e9 fd ef bd 88 1a 3b be
       -0.23325282 0.012980529 -0.117183514 -0.1827184
000040 b2 28 5a 3e 9a 0a 46 bd f2 69 36 3e a0 74 8f be
       0.21304587 -0.048349954 0.17813852 -0.28018665
000050 8a 2d aa 3d cc c4 05 bd 2c f3 86 be 0d c3 7e 3e
       0.08309467 -0.032658383 -0.263574 0.24879093
000060 d1 75 81 be 4a f6 62 be ce 33 c2 3d 9a c4 06 3d
       -0.252852 -0.22164264 0.09482537 0.032902338
000070 7e cb 05 bf 34 ed 86 be 86 38 c7 3b ca fd 98 be
       -0.5226363 -0.26352847 0.006079736 -0.29881126
000080 c6 d4 af be 6a 68 7d be 1a ba 5e 3e 73 b0 ba be
       -0.3434202 -0.24746862 0.2175068 -0.36462745
000090 c8 aa 75 be 27 c6 0c be ce 18 65 bd 9b ab 06 3e
       -0.23990929 -0.13747464 -0.05593186 0.131514
0000a0 4a 90 0c be 0a f6 89 3d 59 6b 93 be 00 56 3a b6
       -0.13726917 0.06736381 -0.28792837 -2.7766218e-06
0000b0 c3 d7 3d bd 0d 96 3b be 2e f4 d9 3e dc fe 02 3e
       -0.046348345 -0.18318959 0.42569107 0.12792534
0000c0 e0 31 61 be 2f 47 be bc 2a 56 a7 be 38 42 8d bd
       -0.21991682 -0.023227302 -0.32682925 -0.06897396
0000d0 24 85 91 be df 22 e0 be d6 39 ab bd 7f f3 2f be
       -0.2842189 -0.43776605 -0.08360641 -0.1718273
0000e0 a2 a8 00 be 6e 55 7a bd 7e 51 46 be 3a d9 b9 3e
       -0.12564328 -0.06111663 -0.19367024 0.36298543
0000f0 5b ca 20 be 2e ba bd be 06 85 c0 bd 4f cc ad 3d
       -0.15702192 -0.37056106 -0.09400372 0.084862344

bn2.running_var f4 [64]
000000 b1 c8 f1 3e 78 80 80 3e a3 e4 83 3e 86 f4 af 3e
       0.47223428 0.25098014 0.25760373 0.34366244
000010 59 fd ff 3e 76 9b 8f 3e 7f 98 c7 3e 7c 2f 73 3e
       0.49997976 0.28048295 0.38983533 0.23748583
000020 78 7e 25 3e fa 65 0a 3f 8f 2a 18 3f 18 2f b0 3e
       0.16161525 0.54061854 0.5943994 0.3441093
000030 61 20 9f 3e f4 a5 b8 3e ad 83 9d 3e 3f 17 ad 3e
       0.3107939 0.36064112 0.30764523 0.33806798
000040 00 8f 1f 3e b2 3c 97 3e dc b4 44 3e c9 53 b3 3e
       0.15581894 0.29538494 0.19209617 0.3502486
000050 44 1f 04 3f b0 ad a3 3e e0 64 01 3f 7b 96 44 3e
       0.5161021 0.3196845 0.5054455 0.19198029
000060 df e5 ab 3e 45 2f 04 3f 48 13 ff 3e 11 ef 5c 3e
       0.33573815 0.5163463 0.49819398 0.21575572
000070 00 35 26 3f c3 7f 03 3f 27 b4 8a 3e 10 7f f2 3e
       0.6492462 0.51366824 0.2709057 0.47362566
000080 f8 de 33 3f 87 22 99 3e 11 96 82 3e 1d 3f 93 3e
       0.702621 0.29909155 0.25505117 0.2875909
000090 c0 d8 bf 3e 3f a2 8b 3e 71 bc 6b 3e eb f3 72 3e
       0.37470055 0.2727222 0.23021103 0.2372586
0000a0 53 02 d5 3e d1 4b 48 3e 42 71 b9 3e 4a 93 8c 3e
       0.41603336 0.19560172 0.3621922 0.27456123
0000b0 37 e5 11 3f 7b ec 1e 3f ec 36 7e 3e 60 d4 63 3e
       0.5699038 0.6207959 0.24825639 0.22248983
0000c0 1c 6f f0 3e df 31 a2 3e 54 9a c4 3e 1e 78 a8 3e
       0.4695977 0.31678674 0.38398993 0.32904142
0000d0 fe 89 95 3e 1b 99 b8 3e 83 d3 b7 3e 77 00 79 3e
       0.29206842 0.3605431 0.35903558 0.24316584
0000e0 1a 3c e0 3e 35 f8 7d 3e 0c f6 04 3f db 0f 86 3e
       0.43795854 0.24801715 0.5193794 0.26183972
0000f0 f9 4e 40 3e 16 0b bf 3e 4a 01 95 3e 15 e7 12 3e
       0.18780126 0.37313145 0.29102546 0.14345963

fc3.weight f4 [2, 64]
000000 43 6e 21 be 03 19 62 be 4b d6 34 be 2d 0c 1d 3e
       -0.15764718 -0.22079854 -0.17659871 0.15336676
000010 e0 ce 06 3e db cf e6 3d e3 a9 58 3d 46 20 8b 3d
       0.13164854 0.11270114 0.05289639 0.06793265
000020 39 31 11 be 1a 82 86 be b6 19 bd bc 62 99 01 be
       -0.14178933 -0.26271135 -0.023083549 -0.12656167
000030 0c a1 05 3e 5e 6e 82 3d 3c 38 21 be 76 10 19 3d
       0.13049716 0.06368707 -0.15744108 0.037369214
000040 37 9e 6a be fd 21 f6 3d 04 5b 5d 3d 6a 32 7d 3e
       -0.22911917 0.120182015 0.054041877 0.24726263
000050 ea 51 85 3d 95 e6 9b 3d f0 1b d2 3d 99 3b 42 be
       0.065097645 0.076123394 0.10259235 -0.18968047
000060 06 e0 47 3e e4 df eb 3d 79 dd 80 be 91 95 32 be
       0.19519052 0.11517313 -0.2516897 -0.17439868
000070 f9 ff 1a 3e 25 5c 3b be a2 c9 5a be 7b d0 99 be
       0.15136708 -0.18296869 -0.2136598 -0.3004187
000080 61 ae f2 3d 5b cf 92 3d d4 30 0f 3e 34 57 c3 3d
       0.118496664 0.07168456 0.1398347 0.09538117
000090 1c df 74 be 21 db 32 3e 32 d3 e3 3d 11 bf a2 be
       -0.23913234 0.17466404 0.11124267 -0.31786397
0000a0 3b f7 b0 3d 58 d9 95 3d af 45 23 be 99 d5 b3 bd
       0.086409055 0.07316846 -0.15944551 -0.08780975
0000b0 cc 6b 26 3d a2 ae 80 3e 6c 0d 04 be 08 8e 69 3e
       0.040630147 0.25133234 -0.12895745 0.22808087
0000c0 1b 7a 0e 3e f1 52 d1 bd 4f db 34 3e a9 6b 26 3e
       0.13913767 -0.10220898 0.17661785 0.16252007
0000d0 40 ad 8b be ee 03 aa 3d 37 b4 01 3e 3b e1 91 be
       -0.27280617 0.08301531 0.12666403 -0.2849215
0000e0 16 9d 40 3e cf 4c 72 be bb a8 54 3e 40 e8 4b be
       0.18809924 -0.23662113 0.2076749 -0.19912815
0000f0 76 cd 06 be 6b ef 57 3e c4 7a 13 be 06 67 9e bd
       -0.13164315 0.21087424 -0.144023 -0.07734494
000100 51 7c 18 3e 4d 3a 12 3e f7 c2 6a 3e b4 76 62 bd
       0.14891173 0.14280052 0.22925936 -0.055288985
000110 f3 78 62 be dd bc 85 be 01 8b 1c be 51 6e b0 bd
       -0.22116451 -0.26120654 -0.15287401 -0.08614791
000120 a2 3b 1e 3e 23 28 a9 3e a6 c8 5f 3e 4f f8 19 3e
       0.15452436 0.33038434 0.21853885 0.15036128
000130 5f 06 a7 bd c7 37 d8 bd 00 62 06 3e e9 ab 21 be
       -0.08155512 -0.10557514 0.13123322 -0.15788235
000140 bf 02 06 3e 99 65 58 bc f3 40 cb bd 94 48 81 bd
       0.13086985 -0.0132078165 -0.099244975 -0.06312671
000150 83 be bf bd 93 34 7c bd 29 4d d7 bd 63 2a 6b 3e
       -0.09362509 -0.061573576 -0.10512764 0.22965388
000160 38 d0 54 bc 82 7f 21 be 46 4a e5 3d 76 ac a7 3e
       -0.012989096 -0.15771297 0.11195807 0.32748765
000170 b0 0d 05 be 2b fd 9b 3e 0f 79 87 3e 0e d7 85 3e
       -0.12993503 0.3046659 0.26459548 0.26140636
000180 9f 17 90 bd 17 e8 68 bd 4f 7b 67 be c2 f7 2b be
       -0.07035755 -0.056861963 -0.22605632 -0.16793731
000190 fc 97 31 3e 14 4f c3 bd 3f 77 2f bd a3 dd 1b 3e
       0.17343134 -0.09536567 -0.04283833 0.15221266
0001a0 0e f3 2f be 25 28 28 be 4d d9 68 3e 29 00 7f 3e
       -0.17182562 -0.16421564 0.22739144 0.24902405
0001b0 11 86 52 be 1a d8 6c bc 2e 92 70 3e 71 94 4c be
       -0.20558955 -0.0144558195 0.23493263 -0.19978501
0001c0 e3 15 63 be ce e2 3d 3e 23 da a6 bd a1 eb 8d bd
       -0.22176318 0.1854355 -0.08147075 -0.06929708
0001d0 3e 80 65 3e 6e 15 1e be e5 d9 fa bd 9e 91 5f 3e
       0.22412202 -0.15437862 -0.12248591 0.21832892
0001e0 e8 ed 07 be 83 59 10 3e a7 4b 43 3b 7f 7e 01 3e
       -0.13274348 0.14096646 0.002979973 0.1264591
0001f0 31 95 69 3e b6 59 53 bc 41 e0 17 3e a2 24 6e 3e
       0.22810818 -0.012899807 0.1483164 0.23256162

fc3.bias f4 [2]
000000 c2 6d 5e 3e 54 0e c2 3c
       0.21721557 0.023688473
